models/checkpoints_tiny/gpt_char_best.pt (torch, 369507 bytes, 109 tensors)

tok_embedding.embedding.weight f4 [37, 32]
000000 6c c6 f5 3f 92 38 be 3f 34 5f 65 3f 85 44 06 c0
       1.9201179 1.4861014 0.89598393 -2.097932
000010 ff ff 2c 3f 3c 4b 9e bf 7a 31 26 bd f5 71 cc bf
       0.6757812 -1.236671 -0.04057453 -1.5972277
000020 86 d5 3f bf 3e 5e d2 3f b1 d1 c6 be ac b7 b2 bf
       -0.74935186 1.643501 -0.38831857 -1.3962302
000030 b3 10 3a bf 20 76 0f bf ee 46 43 bf 88 d7 41 3f
       -0.7268173 -0.5603962 -0.76280105 0.757195
000040 91 9b d1 3f 81 5f 21 be 3c f2 00 bf 6e 0e e0 3e
       1.63756 -0.15759088 -0.5036962 0.4376101
000050 c3 d2 42 bf f8 e4 8a 3f 56 10 4e 3f dc 43 d7 3f
       -0.76102847 1.0851126 0.80493677 1.6817584
000060 60 00 a3 3f bd a6 a5 3f c2 d2 1d 3f 89 19 aa 3f
       1.273449 1.294151 0.61649716 1.3289043
000070 09 1a 72 be a5 1a 27 3d 42 9a 7c be 91 36 5c 3f
       -0.23642744 0.040796895 -0.2466822 0.8602076
000080 8a 90 b0 bf fa 5c 60 bf 81 39 62 be 33 23 db 3f
       -1.379411 -0.8764187 -0.22092248 1.7120117
000090 4e e3 a5 3e bd b6 d6 be 9f 21 9f 3e cf f1 44 bf
       0.32399982 -0.41936293 0.31080338 -0.7693147
0000a0 d5 b0 c6 bf 23 dd 7f 3f b7 38 62 bf 2c 18 1b bf
       -1.5522715 0.999468 -0.8836779 -0.6058376
0000b0 23 bd a3 bf 01 85 07 40 8b 5e 9d bf a2 7c fc be
       -1.2792095 2.117493 -1.2294477 -0.49313837
0000c0 5d 22 6b bf 33 21 27 bf 3d 8a 96 3d 1e 49 05 3f
       -0.9184931 -0.65285033 0.073505856 0.5206469
0000d0 63 4e f7 be e7 d9 97 3f 45 c0 51 bf b2 25 3b bf
       -0.48301992 1.1863374 -0.81934005 -0.73104393
0000e0 9f f4 b2 bf 80 ee 2e 3d 68 16 6f bd 33 3c 2e 3f
       -1.3980902 0.04270792 -0.058370978 0.68060607
0000f0 f4 fe be bd 09 6d eb 3f 17 fd 96 bf b0 70 b0 3f
       -0.09325972 1.839265 -1.1795987 1.378439
000100 c8 78 b9 3f ac 16 5b 3f ef 89 0d 40 ad 58 05 3f
       1.4489985 0.8558147 2.2115438 0.52088434
000110 52 ad b0 3e 2b 95 46 be 5e 6b 86 bf 70 f0 a2 3f
       0.34507233 -0.1939284 -1.0501516 1.2729626
000120 25 ea 32 be 1c ec 05 3f ab 9d 77 3d 44 3a d7 3e
       -0.17472132 0.523134 0.0604531 0.4203664
000130 b1 26 13 3f 2c a6 24 bf c2 e9 0c c0 c7 ab 3f bf
       0.57480913 -0.6431606 -2.2017674 -0.74871486
000140 46 56 40 3c 56 fe ab be 7a 97 ab bf 0b 72 14 bf
       0.011739319 -0.3359248 -1.3405602 -0.57986516
000150 40 da 08 3f bb 11 05 3f 93 c0 91 3f 28 fa 5d 3d
       0.53458023 0.5198018 1.1386894 0.054193646
000160 d2 05 3f 3f 8a 59 f6 be 07 c3 85 bf c6 1f 1a 3f
       0.74618256 -0.48115188 -1.0450143 0.6020473
000170 8b 33 dc bf cf 31 55 bf f8 86 aa 3f ff ef f9 3e
       -1.720323 -0.83279127 1.3322439 0.48815915
000180 a8 7b 20 c0 9f 91 f9 3e 51 da 48 3f e0 f0 ed 3c
       -2.5075474 0.48743913 0.78458124 0.029045522
000190 51 ed 23 3f 87 7f 15 3f 14 87 88 3f ed cc e5 be
       0.6403399 0.58397716 1.0666223 -0.44882908
0001a0 bc be 3c be f4 6a 40 3f ad 72 ce 3e a8 a6 36 3e
       -0.18432134 0.751632 0.40321866 0.17837012
0001b0 09 3e 88 3e 25 c7 a2 3f a5 3a 24 bb 75 b6 9b be
       0.2660983 1.2717024 -0.002505937 -0.3041264
0001c0 c6 8c ba bf a1 fa d1 bd 95 5b 19 bf 76 4e f4 3e
       -1.4574211 -0.10252882 -0.5990537 0.4771611
0001d0 c3 18 3a 3f 57 1c be 3d cc f4 c6 be 41 46 07 3f
       0.72694033 0.09282749 -0.3885864 0.52841574
0001e0 08 44 4e bc 91 85 77 3e c2 94 08 3e 7e 7d 43 3f
       -0.012589462 0.24172045 0.13337997 0.7636336
0001f0 06 f9 8b 3f 80 ca ad 3e ed 07 38 3f ee 0b d2 3e
       1.0935371 0.33943558 0.71887094 0.41024727
000200 c8 4b f5 3f 09 5f 80 3f a1 7e b8 bf b8 e1 90 bf
       1.9163752 1.0029002 -1.4413644 -1.1318884
000210 af f3 11 be 52 b3 cf 3f 83 ee 23 3f 50 22 12 3f
       -0.14253114 1.6226599 0.64035815 0.57083607
000220 f5 35 90 3f 8e 2d b5 3b 28 46 e5 bf a1 c2 6d 3f
       1.1266466 0.005529112 -1.7912035 0.92875105
000230 40 7e b8 be eb 8b 82 3f 1f 44 33 bf 52 e9 26 3f
       -0.3603382 1.019895 -0.7002582 0.6519977
000240 e8 07 79 bf cf 9d 73 3f c2 4d cd 3f d0 f8 b7 3f
       -0.9727769 0.9516267 1.6039355 1.4372807
000250 37 65 90 3e 42 24 5b be 8d cf 37 bf e2 87 d8 3d
       0.2820222 -0.2140055 -0.7180107 0.105727926
000260 56 51 ba 3e 56 e8 75 3f e8 bc e6 be 09 f9 cc 3f
       0.3639018 0.9605764 -0.45066 1.60135
000270 e8 c8 1d c0 47 2f ce be 91 3e 97 bf 51 ab 4d 3f
       -2.4653873 -0.40270445 -1.1815969 0.80339533
000280 9e 48 f1 bf 1f 15 59 3e 4a 52 12 3c d1 fd b5 be
       -1.8850286 0.21199463 0.008930752 -0.3554521
000290 72 13 8a 3e a3 16 37 bf 37 c9 24 3e d0 b1 8a bf
       0.2696796 -0.71518916 0.16092382 -1.0835514
0002a0 9f f2 ca bf 70 e2 aa 3f d3 f2 a2 3f 39 0a 11 3d
       -1.5855292 1.3350353 1.2730354 0.03541014
0002b0 c8 bb c3 bf 18 40 40 3f 68 33 42 3f 10 90 00 40
       -1.5291681 0.750978 0.7585969 2.0087929
0002c0 21 9d 4a 3d 2c 66 d2 3d 1e a7 49 bf 75 1c 65 be
       0.049466256 0.10273394 -0.78770626 -0.22374137
0002d0 c0 54 6a bf 11 92 c9 bf 8e 1a 8f bf e5 0e 09 bf
       -0.9153557 -1.5747701 -1.1179979 -0.5353835
0002e0 94 79 00 bf 8c 49 be bf 1b 6a f4 bf 91 a0 05 3e
       -0.50185513 -1.4866195 -1.9094881 0.13049532
0002f0 7c a9 80 3f a5 b4 09 bf 2f 9e 30 3f f5 d5 31 3f
       1.0051723 -0.53791267 0.6899137 0.694671
000300 e0 0d e2 3f 68 cb 69 bf fc 17 74 3f 55 58 af be
       1.7660484 -0.91326 0.953491 -0.3424708
000310 71 78 95 bf 84 e5 b2 3e a1 0e f1 3e 05 29 ac 3f
       -1.1677381 0.34940732 0.47081473 1.3450018
000320 e5 8c 04 3f 35 a1 06 40 24 0d 03 bf b7 08 6d bf
       0.5177749 2.1035893 -0.51191926 -0.9259142
000330 e6 69 3b 3e dc 97 89 3f e4 b5 a7 3f 58 ac ef 3e
       0.18302116 1.0749469 1.3102384 0.46811175
000340 86 6e 4e bf e4 14 82 bf d2 a5 f8 be d6 b3 15 bf
       -0.80637395 -1.0162625 -0.4856401 -0.5847753
000350 01 df 19 3e 2d 4b dd 3e 4e 72 11 be 38 d8 13 c0
       0.15026475 0.43221417 -0.1420376 -2.310072
000360 78 87 c7 be 4c 3f 89 3f ee d9 e4 bf 58 f5 bf 3f
       -0.38970542 1.0722442 -1.7879007 1.4996748
000370 ab c2 a2 3e c5 10 fc be 1d 25 85 3f 66 cc d8 3f
       0.31789145 -0.49231544 1.0401951 1.6937377
000380 d7 a8 48 bc 11 aa d4 3f d5 d1 15 3e a3 af 86 bf
       -0.012247286 1.66144 0.14630826 -1.052235
000390 d8 e9 13 bf e4 a7 99 3d 0c ef c8 3e a4 ad fd 3f
       -0.5777869 0.07502726 0.39244878 1.9818616
0003a0 56 82 9d bd 81 e0 65 bf e2 8c 02 c0 b9 80 89 bf
       -0.07690875 -0.8979569 -2.0398488 -1.0742408
0003b0 e1 ac 9a 3c 99 28 af 3d de 43 46 3e 2e 8d d5 3e
       0.018881263 0.08552665 0.19361827 0.41709274
0003c0 1e dc 6b bf 64 4e 89 3e 90 c8 07 bf 7a ed ee 3e
       -0.9213275 0.2681762 -0.5304041 0.46665555
0003d0 a7 30 5d bf 88 6f b0 bc f6 ec b0 be 58 5c ba 3f
       -0.8640236 -0.021537557 -0.34555787 1.4559431
0003e0 ee ad 9f 3f 66 0a 39 bf cb 81 58 3f 7a 22 03 3f
       1.2474954 -0.7228149 0.8457305 0.5122448
0003f0 b2 10 08 3f 74 d9 12 3f 84 c6 fe 3e 99 5b 6b 3e
       0.53150475 0.5736306 0.4976083 0.2298416

pos_embedding.pos_embedding.weight f4 [16, 32]
000000 de 8b 7f 3f cd 06 22 3f 9b b3 5e 3f df f4 4f 3f
       0.99822795 0.6329163 0.86992806 0.8123302
000010 fe cd 3f 3e 8a 46 25 bf 31 fa 60 bf ea ee c7 bf
       0.18730924 -0.6456076 -0.8788176 -1.5619786
000020 4a 62 4c bf b7 14 12 3f 77 31 46 3f 80 b5 0f 3f
       -0.7983748 0.5706286 0.7741923 0.5613632
000030 1a 4e a5 3f 77 3c e2 3f d2 98 54 3e c2 e6 bf 3f
       1.291446 1.7674702 0.20761421 1.4992297
000040 80 70 12 3f 3a 40 ad 3e 5e 86 5c 3f 0c 65 02 40
       0.5720291 0.33838063 0.8614253 2.0374174
000050 36 06 bc 3e c3 48 f0 3e 9b a4 bf bc 88 69 8a 3f
       0.3672349 0.46930513 -0.02339392 1.0813456
000060 b6 21 00 bf da c3 5a bf 50 49 69 be 78 70 12 40
       -0.5005144 -0.85455096 -0.22781873 2.2881145
000070 b5 0a 47 bf 89 f7 82 be cb 5d ca 3f 38 15 93 be
       -0.7775071 -0.2557948 1.5809873 -0.28727126
000080 48 76 e6 bd fc 7d 88 3f 32 ac be 3f 91 ea 62 3f
       -0.11253029 1.0663447 1.48963 0.8863917
000090 47 31 7d be b0 55 0c 3f a2 77 61 bd 3b 57 0a bf
       -0.24725829 0.5481825 -0.05504573 -0.54039353
0000a0 e4 30 03 c0 65 2e 07 3f ff 07 30 bf 4f e8 b1 bd
       -2.049859 0.5280517 -0.687622 -0.086868875
0000b0 46 d2 91 be dd 09 a7 3f 68 42 ba bf c8 ac 9b be
       -0.28480738 1.3049885 -1.4551516 -0.3040526
0000c0 c1 af 00 3e a4 9f bd bf 90 c8 da bf c5 cf 0e bf
       0.12567045 -1.4814343 -1.7092457 -0.5578578
0000d0 c7 d3 07 3f 1f 54 ad bf d1 ab 9f 3f 70 62 03 c0
       0.5305752 -1.3541297 1.2474309 -2.0528831
0000e0 78 1b b7 3f 23 b2 29 3e b1 15 93 bf c3 3e 1e 3f
       1.4305258 0.1657186 -1.1490995 0.61814517
0000f0 e8 cd 53 bf fd 95 ee be 00 34 a0 3e fe 39 39 3f
       -0.82736063 -0.46598807 0.31289673 0.72354114
000100 af 6d 22 bf 2b 48 0c 3f 33 47 47 bf a5 1a 9c 3d
       -0.63448614 0.5479762 -0.77843016 0.076222695
000110 36 4a 45 bf fc 22 72 3f 4a 53 e1 3e 66 39 8f 3f
       -0.7706636 0.9458463 0.44008857 1.1189392
000120 bb 2f 00 3f 49 26 92 bf 94 be 3f bf f7 73 3e 3d
       0.5007283 -1.1417934 -0.74900174 0.04649731
000130 35 df 33 bf a6 1a 0d bf 88 5f 53 3f 46 09 12 40
       -0.7026246 -0.5511879 0.82567644 2.281816
000140 47 48 e2 bf b0 ad 80 bf 88 f8 25 3f dd 01 83 3f
       -1.7678307 -1.0053005 0.64832354 1.0234944
000150 0c 35 74 3f 82 c8 a9 3b 23 af 88 bf 43 22 44 bf
       0.95393443 0.005181373 -1.0678447 -0.7661478
000160 ae 1a 1d 40 a8 40 f6 bf ca 38 9e 3e 7b 0b bd bf
       2.4547534 -1.9238482 0.30902702 -1.4769129
000170 55 2a f1 be 64 a9 d2 bd c3 ca 1e bf cd d9 a2 bf
       -0.4710261 -0.10286215 -0.6202814 -1.2722718
000180 48 bd 9e be 0d dd 91 be ca 8b 8a 3f b7 f6 2b 3e
       -0.31003785 -0.2848896 1.082391 0.16793333
000190 18 67 01 3f e0 0d 7e bf 14 6b 91 3f 8b f7 80 3e
       0.50547934 -0.9923992 1.1360803 0.2518886
0001a0 d2 0c ef be 35 81 6e bf 44 d6 23 be dd 97 30 bf
       -0.4668947 -0.93165904 -0.15999705 -0.68981725
0001b0 0a 36 11 be f3 6c d2 3f 4a 25 c7 bf 94 5d 25 be
       -0.1418077 1.6439499 -1.5558255 -0.16148978
0001c0 63 74 2b 3d c1 2e a3 3d 15 af 2f 3f 5f 2a 7b 3f
       0.041859042 0.07967902 0.6862653 0.9811153
0001d0 c2 1f 46 bf b2 f6 a4 bf 00 57 1f bf 6e 13 af 3f
       -0.7739221 -1.2887785 -0.62242126 1.3677804
0001e0 c4 cd 7d 3e 7b b5 e8 be 3e 7a 97 bf dc 6d b6 3f
       0.24785525 -0.4545096 -1.183418 1.4252276
0001f0 74 91 8c bc a0 28 98 3b 3d 74 7c bf 3a 64 9a be
       -0.017159201 0.0046435148 -0.98614866 -0.30154592
000200 a2 de 40 3f bd ef 71 bf 40 08 16 c0 14 dd 4a bf
       0.7533971 -0.94506437 -2.3442535 -0.7924359
000210 c4 9d 51 3f 00 eb 9c 3f af 1c 70 bd 19 f1 92 3f
       0.81881356 1.2259216 -0.058621105 1.1479827
000220 2b 5e 9c 3f 1c 98 a1 be a2 ef 36 bf 58 a4 ba be
       1.2216238 -0.31561363 -0.714594 -0.3645351
000230 9f b5 df 3e f5 dd 50 3e e8 94 01 bf 51 07 0b bf
       0.43693253 0.2039717 -0.5061784 -0.5430804
000240 24 c3 18 3d 61 5a c4 bf d8 f7 0a 3f 05 29 cc be
       0.037295476 -1.5340081 0.5428443 -0.39875045
000250 43 c7 f8 bf 6d 6f b2 3c 78 32 f5 be d9 b5 9e bf
       -1.943581 0.021781648 -0.47890067 -1.2399246
000260 2e ac a8 be 94 04 14 3b 4f a1 5b bd 6f f2 96 3f
       -0.32943863 0.0022585737 -0.053620633 1.1792735
000270 61 d9 de 3f 62 95 04 40 c1 7d 63 be 9d eb ac bf
       1.7410089 2.0716176 -0.2221594 -1.3509403
000280 1f 3b 08 bf 84 21 32 bf 50 54 f1 3e a9 bc b8 bf
       -0.5321521 -0.6958239 0.47134638 -1.4432575
000290 18 73 0b 3e 9b 76 22 3f 81 1b 86 bf 94 e5 07 bf
       0.13618124 0.6346223 -1.0477144 -0.53084683
0002a0 6d 7e 92 bf aa 73 0f be 5e 69 22 bf a2 6b d4 3e
       -1.1444832 -0.14008966 -0.6344203 0.41488367
0002b0 ed ed a1 3e 6e e5 53 bf ef a9 ff be 5e e4 2b 3f
       0.31626835 -0.82771957 -0.49934337 0.67145336
0002c0 00 1b 0d 3f ae 6a 9d 3f ab 80 4d be 02 8b b1 3f
       0.55119324 1.2298181 -0.20068614 1.3870547
0002d0 6b 60 56 bf 00 54 ae 3e e4 58 8c be 71 aa 82 be
       -0.8374087 0.34048462 -0.27411568 -0.2552066
0002e0 bf 9b 91 be 12 06 23 bf f3 cb 35 bd 56 6d 86 be
       -0.28439137 -0.6368114 -0.044383954 -0.26255292
0002f0 49 b6 b9 3f 6a 8e 3d 3d 00 1e 0a bf 61 f2 fe be
       1.4508754 0.046278395 -0.53952026 -0.49794295
000300 55 d7 37 40 06 90 96 bf 0f 1e f9 3f 87 94 96 bf
       2.8725178 -1.1762702 1.9462298 -1.1764077
000310 38 e9 cd bf 9d 8c a7 3d 75 6a 6c bf db 0f c2 be
       -1.6086798 0.08181117 -0.9234994 -0.37902722
000320 2f 9c 7b bf f9 34 1d 3e a0 36 3d 3f 75 1b b3 bf
       -0.9828519 0.15352239 0.73911476 -1.3992754
000330 af 3d 97 3f 4e d9 19 3d 28 59 00 40 c9 51 ea bd
       1.1815699 0.037560754 2.0054417 -0.114413805
000340 50 c8 92 bf 87 6c 64 3f b6 94 34 be b3 94 a4 bf
       -1.146738 0.892281 -0.17634854 -1.2857879
000350 2e 10 12 3f e8 2d bd be c4 f7 03 bf e2 cf cf be
       0.5705594 -0.36949086 -0.51549935 -0.4058829
000360 cc c4 e1 3f 85 09 44 3e ea f7 e3 3f b7 70 38 be
       1.7638183 0.19144256 1.7810032 -0.18011747
000370 8e e5 88 3f cf 0f a8 3f fb 59 ae 3e 48 d8 18 3e
       1.0695055 1.3129824 0.34053025 0.14926255
000380 bf 6b 83 3e 83 62 98 bf 23 8c 85 bf ce 4c 00 bf
       0.2566814 -1.1905063 -1.0433391 -0.50117195
000390 65 d4 67 bf 6a c8 09 3f 74 6d 62 bf a4 1e 4b 3f
       -0.90558463 0.5382143 -0.8844826 0.7934363
0003a0 8f ea 27 3f 94 1c 98 be ce 70 7c 3e 82 74 ad bf
       0.65592283 -0.29709303 0.24652407 -1.355118
0003b0 e8 78 55 bf bb d7 07 bf 78 12 b6 3d ca a5 5d 3f
       -0.83387613 -0.53063554 0.088902414 0.865811
0003c0 31 ab 82 bf 82 52 13 3f 03 00 84 3f c1 41 4d bf
       -1.0208493 0.5754777 1.0312504 -0.8017846
0003d0 fd 8b b8 3e bb 61 d5 3e 76 ae 02 40 bc 1b 48 bf
       0.36044303 0.41676125 2.0418983 -0.7816732
0003e0 d0 51 9c bf ce c9 f3 bd c9 b2 9d 3e 28 61 df be
       -1.2212467 -0.119037256 0.30800465 -0.43628812
0003f0 11 04 46 bf 87 d6 3e bf e7 b3 c3 3f 05 d8 ca bf
       -0.77349955 -0.7454609 1.5289277 -1.5847174

blocks.0.ln1.ln.weight f4 [32]
000000 56 52 82 3f 0b 74 81 3f 86 48 7f 3f 30 cf 80 3f
       1.0181377 1.0113539 0.99720037 1.0063229
000010 6d e4 81 3f 1c bd 7f 3f d7 9c 80 3f 10 bf 80 3f
       1.0147835 0.99897933 1.0047864 1.0058308
000020 eb dc 81 3f d9 2e 81 3f 1c a6 81 3f 87 19 81 3f
       1.0145544 1.0092422 1.0128818 1.0085915
000030 91 a3 7b 3f 4a 05 7c 3f 8a 56 7f 3f 56 b2 81 3f
       0.9829646 0.9844557 0.99741423 1.0132549
000040 09 ba 80 3f 1b 29 82 3f 3b ca 7f 3f 59 60 80 3f
       1.0056773 1.0168794 0.99917954 1.0029403
000050 67 d9 81 3f 40 29 82 3f 0d f2 81 3f c6 31 82 3f
       1.0144471 1.0168839 1.0151993 1.017144
000060 31 6e 7c 3f 59 26 80 3f 0a 36 82 3f 37 c4 81 3f
       0.9860564 1.0011703 1.0172741 1.0138005
000070 b1 98 7f 3f 11 7c 80 3f 54 73 80 3f e1 2e 80 3f
       0.99842364 1.0037862 1.0035195 1.0014306

blocks.0.ln1.ln.bias f4 [32]
000000 c2 6c 9a bc c9 10 96 bc 19 07 8a bc 93 36 27 bc
       -0.018850688 -0.01831855 -0.016849088 -0.010205883
000010 47 94 1c bc 34 71 86 3c 64 71 96 bc 1f e9 2a bc
       -0.009556836 0.016411401 -0.018364616 -0.010431557
000020 03 b8 93 bc 6b cb 86 bc f2 9b 74 3c 13 60 94 bc
       -0.01803208 -0.01645442 0.014929758 -0.018112218
000030 c8 06 92 3c 67 b1 93 bc af 3a 94 3c d3 02 5d 3c
       0.0178255 -0.018028928 0.018094389 0.013489443
000040 5b 8d 3a 3c 0c c7 97 bc 2c 24 51 3b d4 60 8c 3c
       0.011386241 -0.01852753 0.003191243 0.017136015
000050 fe ad 91 bc dd c3 9b bc 0b 87 49 3c 3b c2 99 bc
       -0.017783161 -0.019014293 0.012300263 -0.018769374
000060 b8 47 64 bc 14 5e be 3b da bc 98 bc 11 c9 95 3c
       -0.013933115 0.005809555 -0.018644739 0.018284352
000070 c9 3f 29 bc e1 93 b5 3b 3a 10 5b bb 10 ef 84 3c
       -0.010330149 0.00554131 -0.003342642 0.016227275

blocks.0.attn.q_proj.weight f4 [32, 32]
000000 df 74 d1 3c 0d b4 a8 3d 17 e1 06 bd 72 7d 5f bd
       0.025568424 0.08237467 -0.032929506 -0.054562993
000010 86 73 d2 bd ab a0 82 3d d6 5d 36 3e f1 79 cd bd
       -0.102759406 0.06378301 0.17809233 -0.10033024
000020 5d 42 a0 3d 21 fd cd 3d 43 b7 14 3e 0c 98 93 bc
       0.07825158 0.10058046 0.14523034 -0.018016838
000030 3e 0b e3 3b f2 c7 0c 3e 6b d3 00 3e 76 04 41 3e
       0.0069288304 0.13748148 0.1258065 0.18849358
000040 b7 e3 6d bd 18 29 91 3d e0 81 de 3d ad be f7 bd
       -0.058078494 0.07087916 0.108646154 -0.120969154
000050 82 c1 2c 3d 31 81 52 bd 2c 69 d1 3d 81 6d 8e bd
       0.04217673 -0.051392738 0.10225138 -0.0695448
000060 98 1b 6c ba 39 bf cf 3d 3d 6a 2d be 35 34 23 be
       -0.00090067973 0.10143895 -0.16935058 -0.15937884
000070 2b 22 c5 bd 28 d1 ef 3d 5a 74 e8 3d 9d 7e ed bd
       -0.09625658 0.11709815 0.11350317 -0.11596415
000080 f3 ce 2c 3d 8e fb b4 bd b9 3c 96 bd dd 7e 24 3e
       0.04218955 -0.08837043 -0.07335801 0.1606402
000090 a3 cd b5 3d ee d5 13 bd ea 73 da 3c 4f d8 f1 3c
       0.08877113 -0.03609269 0.0266666 0.02952209
0000a0 ce f3 48 3d db d8 7a bd 72 ba e9 bd e8 e5 e9 3d
       0.049060635 -0.061241966 -0.11412515 0.11420804
0000b0 27 6c e3 3c cf 79 88 3d 93 01 98 bd 74 de 9e 3d
       0.027761532 0.06663858 -0.07422175 0.07757273
0000c0 96 fb 03 3e f4 2b cf 3d 13 15 55 3d e5 7b 36 3e
       0.12888941 0.10115805 0.05202205 0.178207
0000d0 2f 78 af 3b 52 7e 27 3d 78 fc 28 3e a9 ff 3b 3e
       0.005354903 0.040891953 0.16502559 0.18359245
0000e0 14 3e 99 bd e4 65 2f 3e 16 f1 8a 3d f5 79 bc bc
       -0.074825436 0.17128712 0.06784265 -0.023007372
0000f0 99 6d 14 3e 39 16 c4 bd 54 14 d7 3d 79 08 29 3e
       0.14494933 -0.09574551 0.10501924 0.16507138
000100 5c ba 0b be 8e d5 d4 bd 7a bd 31 be 81 89 05 bd
       -0.13645309 -0.10392295 -0.17357436 -0.032601837
000110 0e 43 2e be ba ec 74 bd 10 f8 72 3d b7 22 05 3e
       -0.17017767 -0.059796073 0.059318602 0.13001524
000120 73 87 ba 3d 7e 7f df 3d a6 9b a7 3d f4 57 ea bd
       0.09107866 0.10912989 0.081839845 -0.11442557
000130 9a 8d 1d be 67 0b a3 3c cc bb 30 3e 45 d8 8e 3c
       -0.15386048 0.019902898 0.17259139 0.01743711
000140 29 16 25 bc 07 33 f1 bd 74 a7 a1 bd e3 0c 12 be
       -0.010076084 -0.11777311 -0.07893267 -0.14262728
000150 af 95 03 3e d3 56 0a bd 34 5f 1f be 64 59 b7 3b
       0.12850069 -0.03377421 -0.15563661 0.005595373
000160 72 c7 5b 3c 42 96 c8 bc 63 a1 4f 3d 47 57 d4 3d
       0.013414251 -0.024485711 0.05069102 0.10368209
000170 c0 c2 1b be 9c 37 0e be b0 ad a6 b9 02 af 23 be
       -0.1521101 -0.13888401 -0.00031791395 -0.15984729
000180 50 da 1a be 10 32 19 3e 90 3a 46 bc ec eb a7 bd
       -0.15122342 0.14960504 -0.012098923 -0.081992954
000190 ad 32 6b bd c6 32 03 be 24 df 0e 3e 96 e4 27 bd
       -0.057421375 -0.12812337 0.13952309 -0.04098948
0001a0 a2 f0 b0 bd 01 de 0c be 9d c1 c6 3d 33 26 ac bc
       -0.08639647 -0.13756563 0.097048976 -0.021014309
0001b0 15 8f e2 bb ef 90 64 bd ea b9 c6 bd 2a 5f b1 3c
       -0.0069140294 -0.055802282 -0.09703429 0.021651823
0001c0 c8 2f 0c 3e ac 36 e1 bd 51 a1 44 3c f8 a6 10 be
       0.13690102 -0.10996756 0.012001351 -0.14126194
0001d0 83 e7 a4 bd 03 fa 27 3e 74 6f 36 3c da 43 38 3e
       -0.0805197 0.16403966 0.011134971 0.17994633
0001e0 1b c9 fb bc 4a 4c ac bd 5e 56 c6 bd d4 f1 16 3e
       -0.030735543 -0.084129885 -0.09684442 0.14740688
0001f0 7e f2 17 be 9b bf ba 3d af c7 12 3d 35 45 25 3d
       -0.14838597 0.09118577 0.035834964 0.040349204
000200 6c 0f ac 3d 3b 26 13 bd 3a 9e e8 3d 0f 03 11 be
       0.08401379 -0.03592513 0.11358304 -0.14161323
000210 95 62 67 bd 25 7a f3 3d e7 c8 7e 3d 3c 0a 18 bd
       -0.0564905 0.118885316 0.062203314 -0.037119135
000220 0c 20 61 bd fa da bc bd 4f 7a f6 3d 5b 27 81 ba
       -0.054962203 -0.09221454 0.12035047 -0.0009853648
000230 18 97 c0 bc f7 73 67 3d be c6 0c 3e 9f df 94 bd
       -0.023509547 0.056507077 0.13747689 -0.07269215
000240 76 94 38 bd 91 77 e1 3d 08 e1 da 3d b7 47 ad bd
       -0.04506346 0.110091336 0.106874526 -0.08460944
000250 bb b0 40 be 97 76 80 3c 1c ad 9d 3d a0 34 11 3d
       -0.18817417 0.015681548 0.076990336 0.035450578
000260 e3 ef f5 3d 76 bd 1b be 1b 0c 9a 3d 09 72 c7 bd
       0.120086454 -0.15208992 0.0752184 -0.09738547
000270 6a ee eb 3d 46 62 0c 3e cd f4 79 3d 01 68 17 3e
       0.11520083 0.13709363 0.061024476 0.14785768
000280 c9 38 d8 bd 39 c6 19 be 92 45 2c be b3 08 f1 3d
       -0.10557706 -0.15017022 -0.16823414 0.11769237
000290 cc 39 8a 3d 6c d3 07 be c0 2a ab 3d 24 ee 25 3e
       0.06749305 -0.13264245 0.08357763 0.16204125
0002a0 8b 76 2c be a3 36 0c 3e de 28 9c 3c a5 7a 9c 3c
       -0.16842096 0.13692717 0.019062456 0.01910145
0002b0 6c 3e 24 3e 9e 2f 21 3e e8 21 99 3d 3f fb 08 3e
       0.16039437 0.15740821 0.0747717 0.13377093
0002c0 56 6f 89 3d 5b fe 00 3d 28 ae 26 be 47 13 12 3d
       0.06710689 0.031492572 -0.16277373 0.035662916
0002d0 47 01 ee bd 19 65 7b 3d 59 28 b9 3c 33 0a f0 3b
       -0.116213374 0.06137571 0.022602247 0.0073254346
0002e0 7e 5f ff bd f2 b3 c6 bd a5 17 0a 3e fe cc 9f 3d
       -0.124693856 -0.097022906 0.13485582 0.07802771
0002f0 d8 a5 aa 3d 02 65 6c bd 85 da 2e bd 77 ca 4f bd
       0.083324134 -0.057713516 -0.042688865 -0.050730195
000300 e1 04 0a 3e 61 16 8f bd 67 b6 e8 3d ea b6 f8 3d
       0.13478424 -0.0698669 0.113629155 0.12144263
000310 4e 69 1a be dc f5 f7 ba 84 86 f1 bc 41 ac d2 bd
       -0.15079233 -0.0018917876 -0.029483087 -0.10286761
000320 c0 7c a0 3d e9 13 a6 bc d3 b5 1a 3e 36 93 e0 bd
       0.07836294 -0.020273166 0.15108423 -0.10965578
000330 fa 87 c3 3d 28 a5 1f be 09 a1 b3 bd c8 95 b2 3b
       0.0954742 -0.15590346 -0.087709494 0.005449984
000340 5b d5 05 3e 84 bc bb 3d 0c a1 1f be d6 39 a0 3c
       0.1306967 0.09166816 -0.15588778 0.019558828
000350 12 0d c5 bd 98 87 ed 3b 3b dc 17 be 3b d8 19 bd
       -0.096216336 0.00724883 -0.14830105 -0.03755973
000360 40 e5 f1 3d b6 be 21 be 8f db 23 be 94 9b af 3c
       0.11811304 -0.15795407 -0.16001724 0.02143649
000370 d9 87 2a 3c f1 2f 0e bd 76 5e 16 3e 23 f7 d7 bd
       0.010408365 -0.03471369 0.14684471 -0.105451845
000380 1d a8 da bd a4 8b 10 be 48 01 0c bd d7 fb 57 bd
       -0.10676596 -0.14115769 -0.03418091 -0.052730408
000390 36 0b c8 3d 01 7a 17 bc b0 8b 4f 3d 09 77 7b bd
       0.09767763 -0.009245397 0.050670326 -0.061392818
0003a0 06 21 0b 3e 46 c0 0b 3e ac cc 1c be fd 6b 59 bd
       0.13586816 0.13647565 -0.15312451 -0.0530815
0003b0 13 66 0b be d3 25 9e 3d 9a f0 1d be 71 dc c2 bd
       -0.13613157 0.07722058 -0.15423813 -0.09514702
0003c0 41 97 27 3e 24 a5 2c be 10 b7 0a 3e d4 e7 5e 3c
       0.16366293 -0.16859871 0.13546395 0.013605077
0003d0 5f 01 11 3e 69 1e a7 bd 13 e2 04 3e 6b 2c 7f 3c
       0.1416068 -0.08160097 0.12976865 0.015574555
0003e0 db d1 ab 3c 3c 4e ed 3d 84 b6 2a be f0 bc 12 be
       0.02097409 0.11587188 -0.16671187 -0.14329886
0003f0 db 02 27 3e 4c 46 d1 bd 15 7c f0 bd ab 02 49 3b
       0.16309683 -0.10218486 -0.11742417 0.0030671756

blocks.0.attn.q_proj.bias f4 [32]
000000 e0 55 27 3c 6c b7 1f 3e 97 fc 28 3e be 51 b8 bd
       0.010213345 0.15597314 0.16502605 -0.08999966
000010 b1 a8 19 3c 6b f2 d2 bd a5 5c 45 3d 6b 0b 33 be
       0.009378598 -0.10300144 0.048184056 -0.17484824
000020 11 e0 8a 3d 04 4d 7f bd cd c7 9e 3d 26 2b 40 3d
       0.067810185 -0.062329307 0.07752953 0.04691615
000030 e1 8b b3 bd 6a 3f db 3d 6b 31 b9 3d 95 88 17 be
       -0.08766914 0.10705455 0.09042629 -0.14798196
000040 5d 77 43 3e 6c 5a 25 3e 62 4e db 3d 8b ea 63 bc
       0.19088502 0.16147774 0.1070831 -0.0139109
000050 0c d1 8d 3d 2f a1 c2 bd a7 0c 9b bd dc 23 8c 3d
       0.06924638 -0.095033996 -0.075707726 0.06842777
000060 1a 86 83 3d dc d6 ac 3d d0 60 25 be 81 0f 0e 3e
       0.06422062 0.08439419 -0.16150212 0.13873102
000070 9d 7f b9 bd 72 06 11 3e d9 46 04 3e 18 17 a9 3d
       -0.090575434 0.14162615 0.12917651 0.08256358

blocks.0.attn.k_proj.weight f4 [32, 32]
000000 c9 56 26 3e 69 a3 ec 3d 0e 5c e6 3d 72 14 63 bd
       0.16244043 0.115546055 0.11248027 -0.05543942
000010 4a f6 35 3e 49 e0 4a 3d e2 5b c9 3d e6 7b 53 bd
       0.17769733 0.0495303 0.098319784 -0.05163183
000020 2a b5 e5 3d 87 fa 2d 3e 2c a2 fa bd 67 64 0d 3e
       0.11216195 0.169901 -0.12237963 0.13807832
000030 e1 93 01 be 15 f1 f2 bd 1b 47 07 be e1 72 80 3d
       -0.12654068 -0.11862389 -0.13210718 0.062719114
000040 5d 6b 11 be 73 78 52 bd f0 0d d1 bd 24 4d 77 3d
       -0.14201112 -0.0513844 -0.102077365 0.0603763
000050 0a c8 3c be 44 6b c2 bd 78 98 73 bb df 5a d3 3c
       -0.18435684 -0.094931155 -0.0037169736 0.025800167
000060 54 60 b8 bd 2e 95 5e 3d 33 95 08 be 35 df 16 be
       -0.09002748 0.054341488 -0.13338165 -0.14733584
000070 59 04 4f bc bf e4 e3 bd 67 97 e6 3d 9e de d6 bd
       -0.012635314 -0.11127614 0.112593465 -0.104916796
000080 0f 4c b3 bc 94 ba 86 3d 39 5f 17 be 5d e1 0c 3e
       -0.021886854 0.06578556 -0.14782418 0.13757844
000090 93 e4 b1 bd 65 f0 33 bd a4 d2 d8 bd 76 72 7e bd
       -0.08686175 -0.04393043 -0.105870515 -0.062120877
0000a0 c7 47 90 bd de bb 2b be 31 73 82 3d 85 92 f7 bb
       -0.070449404 -0.16770884 0.06369627 -0.0075553083
0000b0 9f 00 38 3e cd 89 e7 3d af 87 19 3e 2b 6b 30 3d
       0.17968987 0.1130558 0.14993165 0.043070953
0000c0 72 26 c1 3d d4 29 22 3e 28 a0 1e 3e 30 cb 10 be
       0.09431161 0.15836269 0.15490782 -0.1414001
0000d0 26 c0 1d bd 4f 59 30 be 18 74 9b 3c 7f 97 83 bd
       -0.038513325 -0.17221569 0.018976256 -0.0642538
0000e0 dd fa 23 3e 57 fb c2 3c c8 a1 0b 3c 58 33 fe bd
       0.16013665 0.023801489 0.008522458 -0.12412137
0000f0 17 6a 12 be a7 9c 10 3d b4 dc 9f bd 2a 99 a1 bd
       -0.14298283 0.035305645 -0.07805768 -0.07890542
000100 ba c6 f2 3d 57 d7 bb bd a7 96 8c bd 92 2a f8 3d
       0.1185431 -0.09171932 -0.06864672 0.12117495
000110 ba 5f 86 3d 4b 53 cd bd 2f fd 63 3d a5 3d b4 3d
       0.06561227 -0.100256525 0.055661377 0.0880082
000120 fc 3a 2c be ab 7e 2a 3d da 61 4b 3d 6c 84 15 bc
       -0.16819376 0.041624706 0.049653865 -0.00912581
000130 5a f3 2e 3e 65 7e e4 bd fc 3e d9 3d 1d b8 ae bd
       0.17085019 -0.1115692 0.106077164 -0.085312106
000140 19 1b 21 be f0 49 fe 3d e0 26 b8 bd ba 61 99 3c
       -0.15732993 0.12416446 -0.0899179 0.018723357
000150 4d 83 c5 3d 3d dd 21 be d6 89 24 be f1 0c 87 3d
       0.09644184 -0.15807052 -0.16068205 0.06594265
000160 cc 27 20 3e 26 22 f6 bc b2 25 e7 3d 7b c4 86 3d
       0.15640181 -0.03004558 0.11286487 0.065804444
000170 5a 5b 4c 3d 98 99 e8 bd 31 0e 35 3e 19 18 be 3d
       0.049891807 -0.11357421 0.17681195 0.0928194
000180 65 72 a8 3c e7 04 04 3e 07 ea 0e be ca 2c 31 3d
       0.02056236 0.12892495 -0.13956462 0.043255605
000190 62 5b 96 bd dc b3 87 bb e5 12 41 3d 8b 7c 8d 3d
       -0.07341649 -0.004141314 0.04713716 0.0690852
0001a0 a5 8f d0 3c 07 25 0f be a6 54 ce bd c9 e8 04 bc
       0.02545912 -0.13978969 -0.10074739 -0.008112141
0001b0 c7 eb 0f bd fe e9 1f be c1 94 3b 3e 95 21 c2 3c
       -0.035136964 -0.15616605 0.18318464 0.023697654
0001c0 67 35 f8 bd 13 40 ae 3d 71 0d 9d 3d fd da 9a bd
       -0.12119561 0.08508315 0.07668579 -0.075613
0001d0 e1 dd 9e 3d da 48 e5 bd 89 b4 91 3d 98 ff 30 3e
       0.07757164 -0.11195536 0.071145125 0.17285001
0001e0 e1 90 de 3d 27 7c b0 3d 61 d0 51 bd ad 93 2f 3d
       0.10867477 0.0861743 -0.051224116 0.042865444
0001f0 ff 67 8f 3d a9 f1 e7 3c 26 a3 18 bd da 2f 26 3d
       0.070022576 0.028313475 -0.037264965 0.04057298
000200 71 af 91 bd 66 24 dd bd fb 70 1b be 6e 70 16 be
       -0.07113541 -0.10797958 -0.15179817 -0.14691326
000210 cb 35 e9 bd cd 77 3b 3e 9d 41 0b 3d df 96 20 be
       -0.11387213 0.18307419 0.03399812 -0.15682553
000220 26 c0 ce bd f3 da fc 3c 58 ff 28 bd 1c 78 7e bd
       -0.10095243 0.030866122 -0.04125914 -0.062126264
000230 e8 0a 89 bd 8b 38 5c bd a5 ba 2e 3c c1 10 13 bb
       -0.06691533 -0.05376486 0.010664617 -0.0022440406
000240 0a 3a f7 3d 12 b8 d6 3d eb 19 1a 3e cd 13 24 3a
       0.12071617 0.104843274 0.1504895 0.0006259054
000250 c1 d9 b9 bd 7f ad ed 3a 2d db d2 bd e4 ce 92 3d
       -0.090747364 0.0018133371 -0.10295711 0.071683675
000260 5a d2 3a bc c9 19 53 bd e7 3c 18 be 20 d5 c4 3d
       -0.011402691 -0.051538263 -0.14866982 0.09610963
000270 ce 59 d3 3d a6 e5 18 3e 57 d6 6d bd dd 6b 79 3d
       0.10319863 0.14931354 -0.05806574 0.060893882
000280 d6 ae 57 3b 91 8c d9 bd 51 bb d2 bd f1 e4 b6 3d
       0.0032910607 -0.10622514 -0.10289634 0.08930386
000290 44 23 b6 bd 67 54 05 3e dc e4 7f 3d 92 39 42 3d
       -0.08893445 0.13020478 0.062474117 0.047418185
0002a0 c3 9f cf 3d ba 62 c9 3d c8 bd b3 3d 78 0a bb 3d
       0.10137894 0.09833284 0.08776432 0.09132856
0002b0 3a 66 9c bd f2 39 c9 bd ab 11 dd bc 35 ac e2 3d
       -0.07636686 -0.09825505 -0.026985964 0.11068002
0002c0 4d 13 ee 3d 06 fa 07 3e 76 ed 8f bd a3 06 16 bc
       0.11624775 0.1327897 -0.07027714 -0.009156856
0002d0 c3 88 05 be 9f 77 c8 3d 73 4e f8 bd 72 92 85 bd
       -0.13040452 0.09788441 -0.12124338 -0.06522073
0002e0 3d 2a 12 3e 17 c0 fb 3c bb cb b2 bd 0b 8d df bd
       0.14273925 0.030731244 -0.08730265 -0.10915574
0002f0 bb 56 ea bd 6d 44 09 3e 22 de 26 be 24 d1 29 3e
       -0.11442324 0.13405009 -0.16295674 0.16583687
000300 fd 2f 0d 3e 18 8d 2f 3c f7 9e 9d bb 56 50 01 3e
       0.13787837 0.010714792 -0.00481021 0.12628302
000310 78 d4 9a 3d 1c c3 34 3e 18 9a 12 3e 4c 47 f4 bd
       0.075600564 0.17652553 0.14316595 -0.11927661
000320 b4 b4 c3 3d 77 b6 b8 3d 4d cd e7 bd 21 fd 97 3d
       0.09555951 0.090191774 -0.11318455 0.074213274
000330 08 32 bd bd af 8a d7 bd 20 55 e7 3b 81 ab a1 bc
       -0.09238058 -0.10524499 0.0070597082 -0.0197351
000340 09 67 3b bd 1d 8a fd bd 25 d6 c0 3d b5 f0 3b 3e
       -0.04575256 -0.12379859 0.09415845 0.18353541
000350 c5 7d 31 bd 6d bb 04 be 2a db af bb 9d 25 1f be
       -0.043332834 -0.12962122 -0.0053667026 -0.15541692
000360 e1 11 0d be 45 00 87 bd 43 a5 d0 3d 67 af 03 be
       -0.13776352 -0.06591848 0.10187771 -0.1285988
000370 c4 64 dc bc d1 82 b6 bd 69 33 1c be 7f 83 db bc
       -0.026903518 -0.0891167 -0.15253986 -0.0267961
000380 28 62 2f bc 0e 03 bc bc 53 20 f4 3d 77 ed 95 3d
       -0.010704555 -0.022950675 0.11920228 0.073206834
000390 fe 31 e9 3d 54 e4 7b 3d e5 3d a0 3c 55 33 bb 3d
       0.113864884 0.061497048 0.019560764 0.0914065
0003a0 78 3d e4 bd 18 89 c2 3d 53 b4 9e 3d db 30 9a bd
       -0.11144537 0.09498805 0.07749238 -0.0752885
0003b0 db 2a 93 bb ed 16 04 be cd 18 14 be 07 ef 06 3c
       -0.0044911928 -0.1289937 -0.14462586 0.0082356995
0003c0 cb 21 bd 3c 6d 1d ce bc 07 21 47 3d 2a 47 0a be
       0.023087403 -0.025160516 0.04861548 -0.1350371
0003d0 31 9e bb bd 7a e1 ee 3d 95 be 31 be 52 c1 10 3d
       -0.09161032 0.116641 -0.17357858 0.035340615
0003e0 ca 50 07 3e 76 88 00 3e a7 8e 62 3d 0d 97 2a be
       0.13214412 0.12552056 0.055311825 -0.16659184
0003f0 5c 0a b1 3c d5 81 64 bd fc 85 69 bd 85 0f 0f 3e
       0.021611385 -0.05578788 -0.057012543 0.13970764

blocks.0.attn.k_proj.bias f4 [32]
000000 fd a9 2b 3e 86 4c 5b 3d ce 03 12 3e 96 47 01 be
       0.16764064 0.053539775 0.14259264 -0.12624964
000010 3a e8 1f bd 5f 66 5c 3d be 99 cc 3d da 51 c1 bd
       -0.039039828 0.053808566 0.099902615 -0.0943944
000020 19 5c e6 3d 0d 4b 6e bd 92 3e c1 bd 9d ab 0d 3d
       0.11248035 -0.058177043 -0.094357625 0.03458749
000030 bf 2e 10 be 38 22 26 be e8 bc 70 3d a2 9c 76 3d
       -0.14080332 -0.16223991 0.058773905 0.06020797
000040 32 36 8b 3d 45 f4 bd bc f0 63 04 be f5 6c 11 be
       0.06797446 -0.023187766 -0.12928748 -0.1420172
000050 43 36 2d 3e d5 ef 1c be 08 3d 5a 3d 9e 04 13 3e
       0.1691523 -0.15325864 0.05328086 0.1435723
000060 b1 4a 0a 3e bf 44 e4 bd 72 79 69 bd fc b9 10 be
       0.13505055 -0.11145925 -0.057000585 -0.14133447
000070 90 1f e3 3d 85 df 29 be 5f a0 26 be e9 b8 f1 bd
       0.110900044 -0.16589172 -0.16272114 -0.11802847

blocks.0.attn.v_proj.weight f4 [32, 32]
000000 f6 f7 25 3e 3e be ee 3d 72 17 05 3e 6e 63 1b 3e
       0.16207871 0.116573796 0.12997225 0.15174648
000010 06 6c 8b bd af 16 b3 bd 7c 34 eb bd ad 66 8f 3d
       -0.06807713 -0.08744561 -0.1148462 0.07002006
000020 2f d1 ae 3d fb 31 c7 3c 27 7e 1c be 3d 35 b9 3c
       0.08535992 0.024315825 -0.15282498 0.022608394
000030 0a 74 9c bd 05 b6 53 bd b1 2c c0 bc 15 1c 16 bc
       -0.0763932 -0.05168726 -0.02345881 -0.009161969
000040 e2 3d 2f be 3a aa 2c 3e 9f 1c bc bd a2 d7 86 3d
       -0.1711345 0.16861811 -0.091851465 0.065840974
000050 b4 bb 0d 3e 94 06 b6 3d a8 a2 e7 3d 9d 32 ef 3d
       0.13841134 0.088879734 0.11310321 0.116795756
000060 40 f1 e8 3d 81 90 5b 3d 5e 63 01 3e 37 3d c0 bd
       0.1137414 0.053604607 0.12635562 -0.09386676
000070 23 81 e5 bd 38 3e 89 3d bd 75 f1 3c 61 9a 57 bc
       -0.112062715 0.067013204 0.029475087 -0.013159365
000080 dc dc 09 be c0 eb 81 3d 0b cb d6 3d 30 1a b7 bc
       -0.13463157 0.06343794 0.10487946 -0.022351354
000090 dd 69 47 3d fb 6f af 3d bd a0 3a be 5e 9b 94 bc
       0.048684943 0.085662805 -0.1822538 -0.018140491
0000a0 c0 bc 5f bd 94 65 d3 bd 3c c2 c8 3d 96 07 35 3e
       -0.054623365 -0.10322109 0.09802672 0.17678675
0000b0 bb 14 2d 3d 1d f0 c3 3d 22 cc 07 be 46 fc 7e 3c
       0.0422561 0.09567282 -0.13261464 0.015563076
0000c0 2c 24 15 bd 23 59 c2 bd 62 f6 b4 3c 43 a8 7c 3d
       -0.03641145 -0.09489658 0.02209014 0.061683904
0000d0 88 a2 50 3a 2f 05 b3 3d 09 d4 bf 3d 92 33 2e 3e
       0.00079587894 0.08741223 0.09366614 0.1701186
0000e0 55 ce 0b 3c b5 2c 69 3c 1f bb d8 3b 9a 75 ba 3c
       0.00853308 0.01423185 0.0066141034 0.022761155
0000f0 a1 1d ff bd ce fc 03 bd 4b a5 24 be 59 36 eb bd
       -0.12456823 -0.032223515 -0.1607868 -0.11484975
000100 4b a3 0a be 48 91 07 3e 1e d0 d5 bd 89 3d 11 bc
       -0.13538854 0.13239014 -0.10440086 -0.008864769
000110 fd 69 07 3d 1a da 26 3e 4b a6 9d 3d f0 e9 f7 bd
       0.033060063 0.16294137 0.076977335 -0.12105167
000120 2f c4 3e 3e 55 3e 34 be 68 90 55 3c 4e 19 2e 3e
       0.18629526 -0.17601903 0.013034917 0.1700184
000130 b1 71 28 3e 23 d1 66 bd 73 15 f5 bd e7 59 83 3d
       0.1644962 -0.056351792 -0.11966982 0.06413632
000140 33 ee fa 3d 0c 33 a7 bd 93 80 27 bd 23 f5 d2 bd
       0.12252464 -0.08164033 -0.040894102 -0.10300662
000150 6e 3f 98 3d cb ad 4d 3d e6 3d ba 3d 10 04 4c bd
       0.07433973 0.05021457 0.090938374 -0.04980856
000160 ad 79 38 be 47 bf 82 bd 4a 40 07 be e4 c0 44 bd
       -0.18015166 -0.063841395 -0.13208118 -0.048035517
000170 22 b9 5a 3d 61 18 23 be 1b 55 ad bc c4 3d 29 be
       0.053399213 -0.15927269 -0.021158746 -0.16527468
000180 60 d0 03 be 51 ce 0b be e7 5e 86 bd 13 d5 cb bd
       -0.12872458 -0.13652922 -0.0656107 -0.0995275
000190 d2 26 2b 3c e1 75 e7 3d d5 84 0b 3e e4 05 8a 3d
       0.010446267 0.113017805 0.1362489 0.06739405
0001a0 0a 48 08 bc af c7 3f bd 71 1d ff 3d b4 58 e1 bd
       -0.008317957 -0.046821292 0.124567874 -0.11003247
0001b0 b9 d0 00 3e 5f ee 24 be 8f 79 08 be cf ed 43 3d
       0.12579621 -0.16106556 -0.13327621 0.047834214
0001c0 6c 90 74 bd be 5b e6 3c bc fb 2a 3e 43 a3 b6 3d
       -0.059708044 0.028119918 0.16697592 0.089178585
0001d0 18 92 37 3e 71 05 9f bd 36 85 b1 bd 71 d0 f6 bc
       0.17926824 -0.0776471 -0.08667986 -0.03012869
0001e0 86 08 ce bc f0 a2 b7 bd 10 10 12 37 81 cf 24 3e
       -0.025150549 -0.08966625 8.706018e-06 0.16094781
0001f0 f2 8b bb bd ac ea d8 3d 5a 6c c3 3d db 02 d2 3d
       -0.09157552 0.10591635 0.09542151 0.10254451
000200 14 92 fa 3c 2d 24 96 bd b1 4b 83 3d 0a 11 ca bd
       0.030587234 -0.07331119 0.06410921 -0.09866531
000210 a6 c6 fd bd dc a1 1d 3e 25 7a 22 3e 9f 54 0c be
       -0.12391405 0.15393776 0.15866907 -0.13704155
000220 80 89 03 3e 7b 4c 4b 3d ff c1 7c 3d 27 0c 29 3e
       0.12845421 0.049633484 0.061708447 0.16508542
000230 7c cd d6 bc b8 e3 1f bd 80 88 d1 3d c6 1e e8 bc
       -0.02622103 -0.03903553 0.102311134 -0.028334986
000240 06 b5 d2 bc 60 65 b3 bd 3b 7c 42 3e 06 3f 97 3d
       -0.025721084 -0.0875957 0.18992703 0.07385068
000250 fb 45 38 bd bf f7 aa bc 98 60 63 3c e5 61 fa bd
       -0.044988614 -0.020870088 0.01387801 -0.12225703
000260 4d 29 86 3d 4c f4 1a be 33 2f 85 bc 67 a8 8e bc
       0.06550846 -0.15132254 -0.016257858 -0.017414285
000270 a7 cb 64 bd a6 ec 37 3e 7b 5e 88 3d 54 09 a4 3d
       -0.05585828 0.17961368 0.06658646 0.08009592
000280 d0 30 04 be 50 d0 25 3d cb df 38 3d ac b7 cf 3d
       -0.12909245 0.040481865 0.0451353 0.101424545
000290 48 3d 74 bd 16 24 38 bd de d3 1e be 51 a4 e0 3d
       -0.059628755 -0.04495629 -0.15510508 0.10968841
0002a0 39 61 f8 3d 9c 33 b4 3d 73 be aa 3d b7 7c e1 3d
       0.12127919 0.08798906 0.083371066 0.110101156
0002b0 f4 20 22 3e 27 38 8a 3d 13 af 7e 3d 04 88 80 3d
       0.15832883 0.067489915 0.062178683 0.06275943
0002c0 43 73 c1 bd 4d af 14 3d c7 48 84 3d a2 c2 16 be
       -0.094458126 0.036299992 0.06459194 -0.14722684
0002d0 0d 31 25 bd c5 c8 d9 bd d3 bb f6 bd 23 be e5 3d
       -0.04032998 -0.10633997 -0.120475434 0.11217906
0002e0 11 7f 03 3e 00 5e 9d bc bf 6c 63 3d 4a a2 2b bd
       0.1284144 -0.019209862 0.05552363 -0.041902818
0002f0 82 df 36 3d 4a 34 a2 bc cb 89 b2 bd 5d 03 b3 bd
       0.044646747 -0.019800324 -0.08717688 -0.08740876
000300 ac 39 44 3e 5e 87 0f 3d a5 cc c0 bd 8f 5c c5 3c
       0.19162625 0.035041206 -0.09414033 0.024091987
000310 89 36 3a be fd 87 44 3c 14 ed 0f 3e 82 4c 11 3d
       -0.18184866 0.011995313 0.14055282 0.035473354
000320 86 0d 67 3d b1 3e 38 be 0e 07 3f bd ad d2 c6 3d
       0.05640938 -0.17992665 -0.046637587 0.09708152
000330 da 60 e6 bd 33 d5 cb bd 02 bb ec 3d e4 4a 07 3d
       -0.11248942 -0.09952774 0.115591064 0.033030406
000340 57 39 8d 3d b5 ce 19 be 38 6e cc 3d 91 29 0c bd
       0.06895702 -0.15020259 0.0998196 -0.03421933
000350 4c 99 57 3d 9d 1e 22 3e 19 bb 2c be 1e 94 82 3d
       0.05263643 0.1583199 -0.16868247 0.06375907
000360 c0 35 27 be 08 02 16 3e e3 7d 8a 3d dd 72 c5 3b
       -0.16329098 0.14649212 0.06762292 0.0060256557
000370 8b d2 b0 bd 36 d7 58 3d 3f 12 d9 bd 82 3f d0 3c
       -0.08633908 0.052939616 -0.10599183 0.025420908
000380 58 15 2a 3e 36 26 f9 bd 78 6d 2a bd 05 32 66 3d
       0.16609704 -0.12165491 -0.041608304 0.056200046
000390 71 92 40 3d 9c b2 ab 3b 1f 3d 1e 3e 3e 92 16 bd
       0.047014657 0.0052397978 0.15453003 -0.03676056
0003a0 04 c8 75 3d 6a 53 bf 3d e8 57 4f bd 95 fc ff 3d
       0.060005203 0.09342082 -0.050620943 0.12499348
0003b0 a0 f7 05 3e e3 13 7b 3d db ad 01 bd 06 fa 0b 3e
       0.13082743 0.061298262 -0.031659942 0.13669595
0003c0 23 28 f1 bd a8 7f 92 3d 2b 67 91 3c d3 df 07 3e
       -0.117752336 0.07153255 0.01774939 0.13268976
0003d0 89 26 05 be 44 67 45 3d 9a 1b f1 bd ac 72 e1 3d
       -0.13002981 0.048194185 -0.11772843 0.110082
0003e0 23 5b 36 3d bf e2 fb bd 25 be 1c 39 24 fb 06 3d
       0.04452051 -0.12299108 0.00014948154 0.03295435
0003f0 af e3 73 3d 40 e5 0f 3e 4a 67 82 3d 50 8f 14 3d
       0.059543308 0.14052296 0.06367357 0.036269486

blocks.0.attn.v_proj.bias f4 [32]
000000 57 71 8d bd bd 31 30 bd 9d e6 1e 3e dc af 7b b9
       -0.069063835 -0.043016184 0.1551766 -0.00024002738
000010 8a 6e 2c 3e 1a 2b 31 3e 67 db a0 bd 83 cd 3f be
       0.16839042 0.17301598 -0.07854348 -0.1873074
000020 57 3f 35 3e eb bd 9d bd b0 f8 3f 3e 0c 38 06 be
       0.17699943 -0.077022396 0.1874721 -0.13107318
000030 4f 96 79 3c 36 d0 8c 3d c1 de 6c bd ee d3 1f 3e
       0.01523359 0.068756506 -0.057829622 0.15608189
000040 10 1d 2c be 8e ca 6a bd 64 67 2c bc c5 f4 1b 3e
       -0.16807961 -0.057322077 -0.010522697 0.15230091
000050 40 9d cb 3d c1 78 04 3e 9c 72 81 3d d0 20 10 3e
       0.099421024 0.12936689 0.06320688 0.14075017
000060 bb 40 63 bd bf c8 2a bd 8c 5e 67 bc ff 25 b4 3d
       -0.055481654 -0.041695353 -0.014121663 0.0879631
000070 63 8a 51 bd 3f 13 4f 3d 1d 21 2f 3d 2f 7a be 3c
       -0.051157366 0.050555464 0.04275619 0.023251621

blocks.0.attn.out_proj.weight f4 [32, 32]
000000 a4 f4 25 3e 93 27 e8 3c 3d e0 d2 3d b1 8d 86 bd
       0.16206604 0.028339183 0.10296676 -0.06569994
000010 80 56 35 be 1f ab bb 3d 77 e0 b8 3d 71 69 25 3e
       -0.17708778 0.09163498 0.09027188 0.16153504
000020 3d 39 4d 3d a9 9e 82 3c 65 89 13 be 16 2f 19 be
       0.050103415 0.015944796 -0.1440788 -0.14959368
000030 57 f3 3c 3d 38 0c 02 3e e2 9c 9d bb 05 61 93 bd
       0.046130504 0.12699974 -0.0048099617 -0.071962394
000040 d7 23 d5 3d f9 0d a3 bd 78 e7 84 3d 48 6a 23 be
       0.104072265 -0.079616494 0.06489462 -0.15958512
000050 95 1a 34 be 93 ba f7 bd 93 62 2d bd 70 01 68 3d
       -0.17588265 -0.12096133 -0.042330336 0.056641996
000060 3e 16 d1 3d da c3 f0 bd 7e 61 45 bd ef 25 41 3d
       0.102093205 -0.11756106 -0.04818868 0.047155317
000070 4d 3d 1b bd 36 9d 2f bc 90 2a fd 3d 46 6c 0f bd
       -0.037900258 -0.010718634 0.12361634 -0.035015367
000080 9b 6b c7 3d f9 db 18 3e 6a 6a 4f 3d cb 42 11 bd
       0.09737321 0.14927663 0.050638594 -0.03546409
000090 54 0d f9 bd c2 86 03 be 36 9a 1b bd 72 df 8a 3d
       -0.12160745 -0.12844375 -0.037988864 0.067809
0000a0 98 ce c3 3d 91 7a e7 bb 20 3d 12 3e d4 39 76 bd
       0.09560889 -0.0070641716 0.1428113 -0.060113743
0000b0 f6 d5 35 3d fc cd bd bd 54 f4 55 3d 8f 7f 0d 3e
       0.044393502 -0.09267804 0.052234963 0.13818191
0000c0 80 9f 8b 3d 13 2e ab 3c 35 82 89 bd 6c c9 1c be
       0.068175316 0.020895993 -0.06714288 -0.15311211
0000d0 6b 67 03 be 9d d5 1e be e1 e8 f2 3d 2d f3 87 bd
       -0.1283242 -0.15511174 0.118608244 -0.06638179
0000e0 2e 5c f0 bc cc 46 19 be 17 b3 36 bd d3 96 16 3e
       -0.02934083 -0.14968413 -0.044604387 0.14705972
0000f0 df bc 24 3d 56 ef 16 bd 1c 7b b0 3d 5f 55 13 3e
       0.040219184 -0.036849342 0.08617231 0.14388035
000100 33 86 1d 3e 59 80 f8 bd 99 ec 31 3c ca ca 25 be
       0.15383224 -0.121338554 0.010859632 -0.16190639
000110 e9 35 0e be 73 06 f6 3d 8a 9f ff bd 0c 14 a0 bd
       -0.13887753 0.12012949 -0.124816015 -0.07816324
000120 c4 e3 8a 3d be 82 36 3e 64 1a 41 be 55 85 c6 bd
       0.06781724 0.17823312 -0.18857723 -0.096934
000130 2b e7 7c bd 4f b5 00 3e 55 2e da 3d f1 f3 d0 3d
       -0.061743896 0.12569164 0.106533684 0.10202778
000140 31 52 fc 3d 84 a2 0e bd 56 09 0b 3e 37 ae a6 bc
       0.12320364 -0.034822956 0.1357778 -0.020346744
000150 00 00 0b 3c 47 f9 80 bd 32 77 88 3d ae 35 95 3d
       0.008483887 -0.06297546 0.0666336 0.07285629
000160 01 80 83 bb 43 2e 21 3e 1d 44 61 bd ba 3d 35 3d
       -0.004013062 0.15740304 -0.0549966 0.04424832
000170 fe 6d 2c 3e 4c 8f bf 3d d9 ba 79 bd 89 da 8b bd
       0.16838834 0.093535036 -0.060969207 -0.06828792
000180 82 50 48 3d 07 37 41 bc dd 96 78 bb b3 d8 e3 3d
       0.048904903 -0.011792905 -0.0037931718 0.111253165
000190 6e 75 43 3d e7 4b ec bd 85 e4 06 be d4 4e 3b 3e
       0.04771941 -0.11537915 -0.13173111 0.1829179
0001a0 46 19 f1 bc 10 b6 95 bd 2c 0f 11 be 2d b3 3c 3e
       -0.029430997 -0.07310116 -0.14165944 0.18427725
0001b0 02 0a c2 3d 39 9f fb bd 61 d0 11 be 7b 81 11 3e
       0.09474565 -0.12286229 -0.14239646 0.14209549
0001c0 43 d1 b6 3d e5 4b 53 bc 8d b6 15 be 79 dd c1 3d
       0.08926632 -0.012896513 -0.14620419 0.09466071
0001d0 c0 67 09 be 0b fd 97 3d ae c4 32 be aa 09 1b be
       -0.13418484 0.07421311 -0.1745784 -0.15140405
0001e0 b7 ea 28 be 68 3b 2e 3e 7c ec 24 3e 3f 37 1f be
       -0.16495787 0.17014849 0.16105837 -0.15548418
0001f0 e2 d7 15 3e 55 1f ef bd dd 33 26 be f7 07 ba 3d
       0.14633134 -0.11675898 -0.16230722 0.090835504
000200 d7 10 f0 3d ae 8c d5 3d ae 1c 83 3c a4 5c 25 3e
       0.11721962 0.10427223 0.016004886 0.16148621
000210 eb 7d 2d be 83 67 85 3d 74 35 21 bd b5 4b 9f 3c
       -0.16942565 0.06513884 -0.039357617 0.01944528
000220 8b 23 d9 3d 22 33 ed bd 3a a4 83 3d 0b a1 95 bc
       0.106024824 -0.115820184 0.06427808 -0.018265268
000230 12 14 fb 3d b0 02 a9 bc c5 3d a5 3d 73 3d 1d 3e
       0.122596875 -0.020631164 0.08068422 0.15355472
000240 35 3e 3f bd d8 71 2e be 67 ee 35 3e 86 a2 e4 bd
       -0.046690185 -0.17035615 0.17766725 -0.111638114
000250 cd c1 ce 3c 75 50 c0 3d 88 43 07 bd 47 4a 0c 3e
       0.025238896 0.09390346 -0.033023387 0.1370021
000260 e0 1c 01 3e 14 59 00 bd aa 04 15 3d a3 9b 6d ba
       0.12608671 -0.03133495 0.0363814 -0.0009064024
000270 0f b7 33 3e a4 01 e6 3d 29 5f da bd da 8a b5 3c
       0.175503 0.11230782 -0.106626816 0.022160936
000280 7a 7f da 3d c5 07 07 3e 5a df 69 3d 96 4d 8d 3d
       0.106688455 0.13186558 0.05709777 0.06899564
000290 71 47 39 bd 08 63 df ba ad f0 e8 bd c5 4a 1a 3e
       -0.045234147 -0.0017043063 -0.1137403 0.15067585
0002a0 67 e2 02 3e dc 7c c4 bd 71 d8 24 be 00 69 18 3e
       0.12781678 -0.095941275 -0.16098191 0.14883804
0002b0 03 79 1c be 7a b7 cd 3d 85 b3 2b be 6f d5 bb bd
       -0.15280537 0.10044761 -0.167677 -0.091715686
0002c0 38 d5 97 bd 00 93 2c 3e 94 11 e3 bc 32 c3 1c 3e
       -0.07413715 0.16852951 -0.027718343 0.15308836
0002d0 d3 d1 6f 3d 12 3a 22 3e 70 71 eb 3d 0b 6a f8 3d
       0.058549713 0.15842465 0.11496246 0.12129601
0002e0 7b fb 20 3e f4 9e 71 bd bd c3 59 bd 6f 7a 84 3d
       0.15720932 -0.05898948 -0.053165186 0.06468665
0002f0 32 c4 18 3e e4 a9 97 bd bf f1 0a be 52 b5 09 be
       0.14918593 -0.07405451 -0.13568781 -0.13448074
000300 30 d2 c6 bd 01 ed ee 3c d0 64 07 bc 5b 9a 15 bd
       -0.09708059 0.029165747 -0.008263782 -0.036524158
000310 fb 1a 88 bd af 4d 79 3d 9f 58 25 be 45 f9 22 3e
       -0.06645771 0.0608651 -0.16147088 0.15915401
000320 b5 8f 5f bc 6e 07 07 3d 84 8d 97 3d 44 e2 ad bd
       -0.013645102 0.03296607 0.07400039 -0.08490422
000330 6f b9 03 3e 7e 76 0a 3c d4 99 ad 3c f5 08 20 be
       0.12863706 0.008451102 0.021191515 -0.15628417
000340 37 92 7c 3c f8 00 87 3d 4a 3d b4 3c 80 e7 5e bb
       0.01541572 0.06591982 0.022001881 -0.0034012496
000350 02 6c 1a 3e d8 06 1f 3e 85 d4 0a 3e c3 81 33 bd
       0.15080264 0.15529954 0.13557632 -0.043824922
000360 d8 cb ac 3c 50 db ee bd cb aa 00 be 9e 05 98 bc
       0.021093294 -0.11662924 -0.12565152 -0.018557366
000370 5f 5a 7c 3c f0 da c9 bd 18 32 1d be 6a 59 a7 3d
       0.0154024055 -0.09856212 -0.1535114 0.08171351
000380 c8 03 a5 3d 1e e2 e0 bd 62 30 e2 3d ea 8c 17 be
       0.08057362 -0.109806284 0.110443845 -0.14799848
000390 2a a4 ee 3d 76 fb b2 3d a1 e9 3c bd 3a 8a 36 3e
       0.116524056 0.087393686 -0.046121243 0.17826167
0003a0 74 66 e8 bd 2e f2 a2 bd ce 66 fe 3d 4b 4e 08 bd
       -0.113476664 -0.07956348 0.12421952 -0.03327779
0003b0 31 13 80 bd 44 2d 50 3c 50 0f 93 bc d3 b5 ec 3d
       -0.062536605 0.012706105 -0.017951638 0.11558118
0003c0 d0 7d 1f 3e 76 d0 ae 3d 86 52 07 3d 99 bf e7 3c
       0.15575337 0.085358545 0.033037685 0.028289603
0003d0 10 69 25 bc 3a 3c 04 3c 9c 68 34 bc 60 7e ff 3d
       -0.01009585 0.008071 -0.011011269 0.12475276
0003e0 39 18 e5 3d 04 da ce bc ca 5b 80 3d 0f c4 15 3b
       0.11186261 -0.025250442 0.062675074 0.0022852456
0003f0 16 a9 93 3d 9f 7a 12 3e cf f4 ec bd fa 21 1c 3d
       0.07209985 0.14304589 -0.11570131 0.03811834

blocks.0.attn.out_proj.bias f4 [32]
000000 6c 50 b2 bd e1 7a 5b bd 61 29 dc bd aa 77 e7 3d
       -0.087067455 -0.053583983 -0.1075008 0.11302121
000010 5a 26 2f ba 91 62 61 bd 1b 39 80 bd 49 bf 32 be
       -0.0006681435 -0.05502564 -0.06260892 -0.17455782
000020 a3 25 91 bb d3 6e 17 3e 6a 74 09 3e 9c 68 0d 3e
       -0.0044295355 0.1478837 0.13423315 0.13809437
000030 13 99 d2 3d 12 3a bd 3d d4 9e b5 bc fb 59 e7 bd
       0.10283103 0.09239592 -0.022170462 -0.11296459
000040 93 7f 17 3e 79 07 12 be 45 e5 b3 bd 18 87 61 3d
       0.1479476 -0.14260663 -0.08783964 0.055060476
000050 1d cd a3 3d 66 fd e1 bd 9e a7 03 3e da 9b 3b be
       0.07998107 -0.1103466 0.1285691 -0.18321171
000060 e9 b6 77 3d 64 cc 7d 3d 61 e9 aa 3c 99 5a a8 bd
       0.06047717 0.0619625 0.020863237 -0.08220405
000070 fb c9 d1 bd 9b 6d 23 3e b2 0a 68 3d 6f ad a8 bd
       -0.10243603 0.1595978 0.056650825 -0.08236205

blocks.0.ln2.ln.weight f4 [32]
000000 78 56 81 3f 9d af 80 3f df 4b 82 3f a2 41 81 3f
       1.0104513 1.0053593 1.0179404 1.0098155
000010 cc 0c 81 3f 01 36 81 3f bf 33 82 3f 2d 4a 82 3f
       1.008203 1.0094606 1.0172042 1.0178887
000020 2a 4b 82 3f b7 4a 82 3f a7 2c 82 3f 21 fa 81 3f
       1.0179188 1.0179051 1.0169877 1.0154458
000030 0f 4e 82 3f e7 e2 81 3f 88 36 81 3f c4 af 81 3f
       1.0180072 1.014737 1.0094767 1.0131764
000040 71 3a 81 3f 26 1f 82 3f 91 34 82 3f ce 48 82 3f
       1.009596 1.0165756 1.0172292 1.0178468
000050 b4 60 80 3f 97 6a 82 3f 18 22 82 3f 91 55 82 3f
       1.0029511 1.0188779 1.0166655 1.0182363
000060 b5 2c 82 3f b8 ed 80 3f fc 5b 82 3f a7 f8 81 3f
       1.0169894 1.0072546 1.0184321 1.0154008
000070 7c 0c 81 3f 28 45 82 3f 48 64 81 3f f1 17 82 3f
       1.0081935 1.0177355 1.0108728 1.0163556

blocks.0.ln2.ln.bias f4 [32]
000000 71 d2 aa 3b f9 a0 9b 3c 4a 9b 11 bc b7 bc 94 3c
       0.005213075 0.018997656 -0.008887121 0.018156392
000010 a2 b1 3e bc b0 67 62 39 f0 a7 2e bc 1c a2 9a bc
       -0.011639031 0.00021591666 -0.010660157 -0.018876128
000020 c6 05 9c bc 79 60 8d bc 49 cd 97 3c 99 10 05 3c
       -0.019045722 -0.017257916 0.018530505 0.008121633
000030 0c ac 73 3c 72 05 89 3c f5 e8 5a 3c 08 8f 9b 3c
       0.014872562 0.01672623 0.013361205 0.018989101
000040 5a 45 6c 3b 2d 5f 94 bc 01 87 87 3c 8b 8b 94 bc
       0.003605208 -0.01811179 0.016543867 -0.018132946
000050 c5 85 9a bc 86 04 9d bc 4f 08 88 3c fa 10 2c bc
       -0.018862614 -0.019167196 0.016605524 -0.010502094
000060 07 b6 9c 3c 4c 36 89 3c ae 0b 98 bc df b4 a9 bb
       0.019129766 0.016749524 -0.018560257 -0.005179032
000070 e3 1a 93 bc c2 3b 98 3c be ca ec 3b 62 98 45 bb
       -0.017957157 0.018583182 0.007226317 -0.0030150642
